model.onnx (onnx, 14243 bytes, 5 tensors)

sequential/dense_2/MatMul/ReadVariableOp:0 f4 [32, 1]
00000000: b50b c83e 400f 553e d804 8a3d 7c93 f9bd
00000010: 9cec 903d 94bc 0abb 5a8e a33d a345 abbd
00000020: bb6f 68ba f12a bcbd 6040 213e c1b2 b2be
00000030: 018a 99bc 3ac9 c9be fdf2 5c3e 627e c63e
00000040: 64d6 4c3e 742c c23e 7985 84be 592e a93e
00000050: e298 bdbc a0a1 e13d 1a7f 0dbd 9489 a1be
00000060: a739 cf3e 72ee f6bd 591e 703c 047d 2fbe
00000070: 29f6 afbe f177 0e3d 6935 c2be 1221 20bd
0.39071432 0.20806599 0.06739205 -0.121863335 0.0707638 -0.002116953 0.07986136 -0.083628915
-0.0008866747 -0.09187878 0.15747213 -0.34902003 -0.018742563 -0.39411336 0.21577068 0.38768297
0.20003659 0.3792454 -0.25883082 0.33043173 -0.02314419 0.11017156 -0.03454504 -0.31550276
0.40473673 -0.120571986 0.014655673 -0.17137533 -0.34367493 0.034782354 -0.37931374 -0.03909404

sequential/dense_1/MatMul/ReadVariableOp:0 f4 [64, 32]
00000000: 90da 483e a03f d2bd 7c3a 6fbe 291a 303e
00000010: e00d c7bd 2f34 24be 3449 3dbd 51d0 8f3d
00000020: 7051 1b3c be45 e63d 1463 71be 0833 6e3d
00000030: 5728 153e a8cc 1dbe 79b1 4b3d 08ce bdbd
00000040: b02e 29bd 00ff 7bbb 2e96 63bd 4e5a 8c3d
00000050: a73b 583e 443b 0ebe ff2b dc3d 3f5c ed3d
00000060: f845 babd b01b adbd 943b 1d3d 5a68 30bd
00000070: a1f2 413e db65 d23d 77eb c0bd 7608 2d3e
00000080: d490 6dbe 20c3 cfbd 80f8 d7bc e3d8 853d
00000090: 6044 21bd 4508 573e 30b7 453e 2348 22be
000000a0: c5db a03a bae1 713e 7848 6cbe c024 753e
000000b0: e88f 5f3e 182d f4bd 183a eebd a0b3 70be
000000c0: dcb5 5abe 007e ab3b f955 2f3d 01f1 073d
000000d0: 5dfe 2abe b831 03be bce4 92bb f5f5 073e
000000e0: dd81 b63d 89a1 16be 54b7 693e af7c fd3d
000000f0: 9a03 543d c9ab 373e b0af 88be 2b26 2bbe
00000100: 9c73 1ebe a05b 4abd e07e b33d 3a64 01be
00000110: 48fa 3bbe a515 dd3d 2825 033e e153 b93d
00000120: 10ab bcbc b7d0 a03d 68c1 5dbe 8001 173e
00000130: d6e9 86bd 08d7 3abe 81e6 34be 009a cb3d
00000140: e067 44bd 803d 92bc 9651 7fbd cf26 1dbe
00000150: c27e 453e 54ef 1ebe 89b9 ba3d 0a2c 3dbe
00000160: 3a42 f43d e3ea 4f3e 5dd1 5e3e eb20 4e3e
00000170: ec41 693e effa 0dbe 5c2c cd3d 331e 283e
00000180: 25d4 a3bd a023 c23c 4436 5ebe e09c 263e
00000190: 204d 9cbd 38ae f9bd 6416 0f3e bafb 27be
000001a0: 73a5 c4bd 22c9 7a3c 00da 6fbe c138 193e
000001b0: a57f 023e 1043 653d 5092 cc3d 2062 eebd
000001c0: e034 afbc 08b1 4fbe 61e4 453e b19a c63d
000001d0: b999 8abd 5832 23be bfca 5fbe ba7f 673e
000001e0: 253c cabd c787 cb3d b443 febd 8439 be3d
000001f0: fe1d 0b3e 996f 5d3d 5066 69be 2939 65be
00000200: 08e0 543e a06e f9bd d0c0 edbd 0c75 4b3e
00000210: a024 36be 244a 3dbe b62f 5d3e a281 243d
00000220: 814a afbd 8773 3b3e 4ccf 763e b785 8cbe
00000230: 7db5 3bbe 4052 d43d 1480 6cbe 607c db3d
00000240: 489a c8bd 70ae 663d 134c c2bd 34a7 49be
00000250: 2705 81be 5840 ef3d a16a 86be b55d 5abe
00000260: 24b7 13be f2df c33d dfe7 153e 61ce acbd
00000270: e6c8 ae3d 5058 173e 10da 303e 9dff edbd
00000280: 20b7 30be c0c0 5d3d f040 f73d d024 92bd
00000290: ccf3 1c3e 0017 d13d 80ce c6bc b42c 2dbe
000002a0: 80f0 f3bb d895 97bd cc7e 4abe 0046 cfba
000002b0: 3038 773d d839 4bbe 1016 703d 5c79 74be
000002c0: 1c42 4cbe a4f0 093e 74af 3dbe 4063 043d
000002d0: 305c f3bd 747e 74be d0c0 58bd 6008 d13d
000002e0: 687a f33d e0d3 1cbe 50bc 133d b8d1 b53d
000002f0: 70bc 773d 000f 7c3b b8b8 d03d 7461 0f3e
00000300: 6ab3 f8bd 3486 603e ccd1 643e d97c 28be
00000310: d85a a3bd 0caa 713c 93e8 703e 9a16 353e
00000320: d5ca 03be f2f6 853c a038 e43c 049e bd3b
00000330: cb5b dfbd 20e4 5cbe d633 30be 8cc4 3abe
00000340: 006b b93d a820 a6bd fde1 0d3e 7983 8e3d
00000350: 27ec 31be 2834 9b3d b415 2a3e 7a78 f0bd
00000360: e4a3 7cbd 3164 163e 4bb8 67be 2a3e 38be
00000370: 832c f83d eb62 12bd efa8 153e 395f b0bd
00000380: 2cd6 6f3b 90cc 32be 7cde 07be a039 be3d
00000390: a096 b6bc 2318 f0bc dfae 1c3b 06c4 4c3e
000003a0: c22d b6bd 7488 633e e824 6d3e 192d 74be
000003b0: 4d47 24be b8c6 fd3d 6235 1d3e 8013 55bd
000003c0: d8fc 18be 6813 32be 0033 933d fda6 5fbe
000003d0: df09 323e 00a9 113d 8cc2 513e 3cba 57be
000003e0: 358d 6f3e f33b a53c 2f06 ef3d 56df 8cbd
000003f0: ddcb ddbc abc5 7f3e 651e 32be 9122 6abe
0.19614625 -0.10266042 -0.23362154 0.1719748 -0.09719443 -0.16035531 -0.04621239 0.07022155
0.009479865 0.11243771 -0.23572952 0.058154136 0.1456617 -0.15410101 0.049729798 -0.09267813
-0.04130429 -0.0038451552 -0.055563144 0.06853162 0.21116506 -0.13889796 0.10750579 0.1158986
-0.09095377 -0.084525466 0.038386896 -0.043068267 0.18940212 0.10273334 -0.09419911 0.16897759
-0.23199779 -0.10144639 -0.026363611 0.065355085 -0.039371848 0.20999248 0.19308162 -0.1584783
0.0012272528 0.23621264 -0.2307452 0.239398 0.2183224 -0.119226635 -0.11632174 -0.23506021
-0.21358436 0.005233526 0.0428066 0.033188824 -0.16698594 -0.12811935 -0.0044828337 0.13277419
0.08911488 -0.14710058 0.2282384 0.12377297 0.051761247 0.17936625 -0.2669654 -0.16713779
-0.15473789 -0.049403787 0.08764434 -0.1263589 -0.18357193 0.10795144 0.12807143 0.09049202
-0.023030788 0.07852309 -0.2165581 0.14746666 -0.065875694 -0.1824609 -0.17666055 0.099414825
-0.047950625 -0.017851591 -0.062333666 -0.15346836 0.19286636 -0.15520984 0.09117419 -0.18473831
0.11926694 0.20304446 0.21759553 0.20129745 0.22779053 -0.13865255 0.100182265 0.1641777
-0.07999448 0.023698628 -0.21700388 0.1627078 -0.07631898 -0.12191433 0.13973385 -0.1640462
-0.096018694 0.015306743 -0.23423004 0.14963056 0.12744005 0.05597216 0.099888444 -0.116398096
-0.021387517 -0.20282376 0.19325401 0.09697474 -0.067676015 -0.15937173 -0.21854685 0.22607318
-0.09874753 0.09938007 -0.12415257 0.09288314 0.1358566 0.054061506 -0.22792935 -0.22385086
0.20788586 -0.12179303 -0.11609042 0.19868869 -0.17787409 -0.18485314 0.21600232 0.04016269
-0.08559132 0.18305789 0.24102515 -0.27445766 -0.18330951 0.103672504 -0.23095733 0.10717082
-0.09795052 0.0563187 -0.09487166 -0.19692689 -0.25199243 0.116821945 -0.26253226 -0.21324809
-0.14425331 0.095641986 0.14639233 -0.08437801 0.08534412 0.14779782 0.17270684 -0.1162102
-0.17257357 0.0541389 0.12072933 -0.07135928 0.15327376 0.10209465 -0.024268389 -0.16911584
-0.0074444413 -0.07401627 -0.19774932 -0.0015813708 0.06035632 -0.19846284 0.05861479 -0.2387442
-0.19947094 0.13470703 -0.18523961 0.032321215 -0.11882818 -0.23876363 -0.052918255 0.102066755
0.118885815 -0.15315199 0.03606826 0.08877891 0.060482442 0.003846109 0.10191482 0.14002019
-0.121435955 0.21926194 0.22345656 -0.16453876 -0.079763114 0.014750015 0.2352622 0.17684403
-0.12870343 0.016353104 0.027859032 0.005786659 -0.1090618 -0.21571398 -0.17207274 -0.18239039
0.09053612 -0.081116974 0.13855739 0.0695867 -0.17375241 0.075783074 0.16609842 -0.11741729
-0.061679736 0.14686657 -0.22628896 -0.17992464 0.12117865 -0.035738867 0.14615224 -0.08611912
0.0036596162 -0.17460847 -0.13268465 0.09288335 -0.02228862 -0.029308384 0.0023907942 0.19996652
-0.08895446 0.22220021 0.2315861 -0.23845328 -0.16042824 0.12391418 0.15352395 -0.05202055
-0.14940202 -0.17390215 0.07187462 -0.21841045 0.17386578 0.03556156 0.2048437 -0.21067137
0.2339371 0.020170188 0.11671101 -0.068785354 -0.027074749 0.24977748 -0.17394407 -0.22864749

sequential/dense_1/BiasAdd/ReadVariableOp:0 f4 [32]
00000000: e61c ffbb 0000 0000 0000 0000 b8ab b8bc
00000010: 0000 0000 6684 67bd 6ecc 843c f071 c1bc
00000020: abe9 833d 4fab bebc 0000 0000 6a67 a9bc
00000030: 2248 f0bc 0000 0000 6e18 1fbd 0000 0000
00000040: 0000 0000 0000 0000 24a1 09bc b6a1 7a3c
00000050: 6d63 afbd 0000 0000 ed64 d7bc e69d 7cbb
00000060: d3dc 983c b31d 6cbd 1f94 1e3c 2a03 8fbc
00000070: 7e2d 96bc d3a0 403c 5ff9 01bd ae98 8bbd
-0.0077854274 0.0 0.0 -0.02254282 0.0 -0.05652275 0.01621076 -0.0236139
0.06441053 -0.023275046 0.0 -0.020679194 -0.02933127 0.0 -0.038841657 0.0
0.0 0.0 -0.008400235 0.015297344 -0.08563886 0.0 -0.026293242 -0.0038546263
0.018659985 -0.05764551 0.0096788695 -0.017457563 -0.01833224 0.0117570935 -0.03173196 -0.06816231

sequential/dense/MatMul/ReadVariableOp:0 f4 [16, 64]
00000000: ba94 7e3e 81e3 5d3e 8eed 233e 565f fcbd
00000010: 84bf 3dbd 31e2 81be 5861 9c3d ab5b e63d
00000020: 0074 9dbc 1190 18be 2560 9cbd 1b5c 52be
00000030: 05a5 28bd c37a 1a3d 945f 34be 814d 3abe
00000040: 7936 eb3d 450f 3f3d aae6 c9bd 9296 b13b
00000050: 549a 80be 9271 8cbd 7241 fdbd 36f9 93bd
00000060: a214 83bd 5482 8dbe 7c8d fa3d 8015 7f3d
00000070: 85cc ad3d f477 043d bc90 3c3e aeb2 993b
00000080: 94f5 83bc 0a46 b9bd 081e 743e c3e5 7bbd
00000090: bc3c 623d fb17 3b3b 2e48 cf3d 4c8b 0b3d
000000a0: 9250 5ebe 0456 7a3d 3eef 20bc 2391 cf3a
000000b0: 1331 85be 2c56 01bd e571 393e 02a3 cdbd
000000c0: bc82 e8bc 4436 6fbe c631 5f3d 4012 5ebe
000000d0: 2268 57be 4852 42bd 3bff 683d e874 dfbc
000000e0: 6896 f23c a718 cc3d d1af 193c 1022 30be
000000f0: 7116 07be f9d0 f73b 2be8 9ebe fa54 1abe
00000100: 07d7 7d3e da74 693e 4eb0 7b3c 5a8f 833e
00000110: 5ccf d53a c865 55bd 6710 7a3e 6f43 6cbe
00000120: a05b 41bc e56e 1d3e d43d 773d 5e18 143e
00000130: 234c 123e a1d9 753e f02e 56bd e5fd 063e
00000140: 8108 29bd 7bee 653d 0fd2 16be 6db1 06be
00000150: 2e4b 27be 9411 32bd 8784 22be 6d25 283d
00000160: 08a1 17bd 472c ae3d 6742 273e cdc7 203e
00000170: 514f 753e cae1 7c3e d60c 413e acbe eebd
00000180: 122e a43c e062 28bc 2fa2 abbd b619 313e
00000190: 817a 2abe 0808 a3bd a7d0 2d3e d32b 97be
000001a0: 8161 e03d e622 02bd d106 303e 1904 b8bc
000001b0: ea2e 13be 4071 48be add0 813d e757 de3d
000001c0: af37 fd3b ee55 8f3c d307 613e 8881 4cbe
000001d0: 4229 893d 72e1 1fbe bc2f 163e 024a 013e
000001e0: 9b53 94be 4678 0d3e c776 453e 4eb7 adbd
000001f0: 3f29 d93c 8a8e 3bbe 6a8d cb3d 78d4 d73d
00000200: 723e 7f3d 06f9 983d 13b6 27be b40e 933c
00000210: 1dd4 3fbd 96ac 34be ecec 8abd 0cab 023d
00000220: 60bc 483e 5994 ddbd c438 6b3e 728d 613e
00000230: 25a8 06be c74c 1abc 4a90 3d3e d68a 283d
00000240: efae 2b3d aa43 0c3e d05f c73c 9523 84be
00000250: 2c22 cd3d 9851 73be 280d 3b3e 2d0f 4cbd
00000260: d0fa 953d 5f71 5cbe de8f 10be 943d 6bbe
00000270: 2d8e 223d ccf6 8dbd f7cc a73c 9ebc 8a3e
00000280: e54e 943c 4095 87bd d53c 56be 04ae ddbc
00000290: bf86 0abf 1d9e cd3d e549 80be 0b5d 92be
000002a0: be53 9dbe b222 253e 164b a3be eb65 3dbe
000002b0: 180f cd3d 9ac8 003e d576 cdbd 4c1a 89bd
000002c0: c0a7 8f3d 777a 8abe d648 bcbd 3afa 5abe
000002d0: 7e41 79be c033 b6bd 3bc0 07be efc4 3b3d
000002e0: 85b4 10be 47e4 28be ab7b 273e 8207 31be
000002f0: 1012 3fbe dcdc 13be 23c1 c9bd cae3 163e
00000300: 23a4 253e 15eb efbc a28e 903e 2419 39be
00000310: 08f0 a93d ceec 2c3e 3bc5 1dbe 715a 53bd
00000320: 0056 d13d bd1c 27bb e5ef debb 9b73 083c
00000330: cfdc 1c3c ea38 253e 4e63 823e 3d79 23be
00000340: fd87 5cbd 1fcd f43d 8cd9 43be 8516 7cbd
00000350: 1a7e 013e 37c8 77be 980d 08be 1347 2e3e
00000360: fa02 563e a36c c93d 0210 f0bd b9b4 25bc
00000370: bd25 5b3e bdd0 c93d 1e32 f53d 15f1 e7bd
00000380: 26f6 20be ea7f 36be 3dba 4c3e 78c4 9d3c
00000390: 0eb3 aebe e0a8 a23d 2629 afbe 33c4 213c
000003a0: a5b1 c93b 54e3 4bbe a4a9 37be e7b1 8fbe
000003b0: 3043 bebc 44ce 2bbd b65b 1e3d 8681 a83d
000003c0: f38e 5ebe 57ef 97bd 4fe3 a23d 0ada 423e
000003d0: c600 5c3e 606a 0a3d 8c31 f23d af71 71be
000003e0: efed e6bd 8637 9abb cdf0 9cbc 9475 c63d
000003f0: 8bee 5a3d dc2c 33bd 7218 7c3e 8802 153e
0.24861422 0.21668817 0.16008589 -0.123228714 -0.04632522 -0.25367883 0.07635754 0.11247953
-0.019220352 -0.14898707 -0.076355256 -0.20542948 -0.041173 0.03771473 -0.17614585 -0.18193628
0.11484999 0.04664542 -0.09858449 0.0054195607 -0.25117743 -0.06857599 -0.12365998 -0.072252676
-0.0640042 -0.27638495 0.12234017 0.062276363 0.08486275 0.03234096 0.18414587 0.0046904897
-0.016108312 -0.09046562 0.23839581 -0.061498415 0.055233702 0.002854823 0.10121189 0.03406839
-0.21710423 0.061117187 -0.009822665 0.0015836101 -0.26014003 -0.03157632 0.18109854 -0.10040857
-0.028382652 -0.23360544 0.054490827 -0.2168665 -0.21035817 -0.04744175 0.05688403 -0.027277425
0.029612735 0.099656396 0.009380297 -0.17200494 -0.13192154 0.0075627533 -0.31036505 -0.15071478
0.24789058 0.22798482 0.0153618585 0.25695306 0.0016312408 -0.05209902 0.2442032 -0.23072599
-0.01180163 0.15374334 0.0603617 0.1446242 0.14286856 0.240088 -0.052290857 0.1318279
-0.041267876 0.056135636 -0.14728568 -0.1315362 -0.16337273 -0.043473795 -0.15870868 0.041051317
-0.037018806 0.08504539 0.16333924 0.15701218 0.23956038 0.24695507 0.18852553 -0.116574615
0.0200415 -0.01027748 -0.083805434 0.17294964 -0.16648294 -0.07960516 0.16974126 -0.29525623
0.109560974 -0.031771563 0.171901 -0.022462891 -0.14373365 -0.19574451 0.0633863 0.1085661
0.0077275853 0.01749703 0.21975641 -0.19971287 0.066973224 -0.15613344 0.14666647 0.12625888
-0.28970036 0.13815412 0.19283591 -0.08482228 0.026508925 -0.18316093 0.09939082 0.10538572
0.062315412 0.074693725 -0.1637805 0.017951347 -0.046833146 -0.17643961 -0.067834705 0.031901404
0.1960311 -0.10819311 0.22970873 0.22026613 -0.1315008 -0.009417719 0.18512073 0.04114803
0.041914877 0.13697687 0.02433768 -0.25808397 0.100162834 -0.23761594 0.18266737 -0.04981916
0.07323229 -0.21527623 -0.14117381 -0.22972709 0.03968637 -0.069318384 0.020483477 0.27097028
0.018104026 -0.06620264 -0.20921643 -0.027060516 -0.54111856 0.10039923 -0.25056377 -0.2858661
-0.30727953 0.16126516 -0.31893224 -0.1849591 0.100126445 0.12576523 -0.10032431 -0.06694469
0.07014418 -0.27046558 -0.0919358 -0.21384516 -0.2434139 -0.08896589 -0.13256924 0.045842107
-0.14131363 -0.16493331 0.1635577 -0.1728802 -0.18659234 -0.1443972 -0.09851291 0.14735332
0.16175894 -0.0292869 0.2823382 -0.18075997 0.082977355 0.16887209 -0.15407269 -0.051599924
0.10221481 -0.0025499307 -0.0068035 0.008328344 0.009574129 0.16134992 0.25466388 -0.15964217
-0.053840626 0.11953186 -0.19125956 -0.061544914 0.1264576 -0.2419747 -0.13286436 0.170193
0.20899573 0.09835174 -0.11721803 -0.010113888 0.21401115 0.09854267 0.1197245 -0.113252796
-0.15718898 -0.17822233 0.1999292 0.019258723 -0.34120983 0.079423666 -0.3421108 0.009873438
0.00615521 -0.19910938 -0.17935807 -0.28065416 -0.023225397 -0.041944757 0.03866168 0.0822783
-0.21734218 -0.07418697 0.07953512 0.19028488 0.2148467 0.033792853 0.118258566 -0.23578523
-0.11275851 -0.004706326 -0.019157792 0.09690395 0.05345015 -0.043743953 0.246187 0.14551747

sequential/dense/BiasAdd/ReadVariableOp:0 f4 [64]
00000000: 5b46 03bd e195 d3bc b820 01bd 2094 8dbc
00000010: 24f0 11bd 0000 0000 b921 21bd 38cf c43d
00000020: 0000 0000 1a3e a0bc 9fd7 18bc eae7 85b9
00000030: ac19 c43b 7b29 ea3b 0000 0000 d999 febc
00000040: 1701 77bd cb4c 61bd 0000 0000 19b1 95bd
00000050: 0000 0000 0000 0000 0000 0000 0b4a da3b
00000060: 0000 0000 f845 b5bc d820 0ebd 69ff dbbc
00000070: b85b 843c eb43 bcbc ca0d b03b c174 6a3c
00000080: 2ee7 49bd 0000 0000 7f52 e73c 95d3 063b
00000090: 4772 17be 3cf1 86bd b60a 26bd 6c33 04be
000000a0: eb11 64bd 17d7 ce3b 9b89 1dbd 2378 dabb
000000b0: 0000 0000 0000 0000 c2f6 703b fec2 ae3b
000000c0: 6a4e 4f3b 0bde 01bd a073 8fba 0000 0000
000000d0: a806 a63b 0000 0000 62a5 8f3c 0fd8 18bd
000000e0: 5d33 50bc 27ee 8fbd d6e0 36bd 0000 0000
000000f0: 6db4 783c 8c71 8d3b 594f c5bc 4c77 4dbc
-0.032049518 -0.025828304 -0.031525344 -0.017282546 -0.035629407 0.0 -0.0393388 0.09609836
0.0 -0.019560862 -0.009328752 -0.00025540526 0.0059845056 0.007146058 0.0 -0.03107922
-0.060303774 -0.055004876 0.0 -0.07309169 0.0 0.0 0.0 0.0066616586
0.0 -0.02212809 -0.03469929 -0.026855187 0.016157016 -0.022981605 0.0053727375 0.014310063
-0.049292736 0.0 0.02823758 0.002057289 -0.14789687 -0.065889806 -0.04053756 -0.12910241
-0.05568115 0.006312262 -0.03846131 -0.0066671534 0.0 0.0 0.0036768173 0.0053333035
0.0031632432 -0.031705897 -0.0010944493 0.0 0.0050667115 0.0 0.017534915 -0.037315425
-0.012707558 -0.07027846 -0.044648014 0.0 0.015179736 0.0043165144 -0.024085687 -0.01254065
