teknisyen_model.onnx (onnx, 710756 bytes, 14 tensors)

sequential/dense_3/MatMul/ReadVariableOp:0 f4 [128, 8]
000000 b9 eb b4 3c 65 a0 f9 3c 3b 98 6b 3c 28 54 db 3c
       0.022085058 0.03047199 0.014379556 0.026773527
000010 8e f0 4c 3d 13 fa e2 3c 46 f6 33 3c 35 8a c1 3c
       0.0500341 0.027707135 0.010984009 0.023625473
000020 9d 90 05 3d 82 7f 40 3d 19 f4 a1 3c 22 4a ef 3c
       0.032608617 0.0469966 0.019769715 0.029210154
000030 e4 20 44 3d 57 53 36 3d c1 3c 90 3c 7b 3b f6 3c
       0.04788293 0.044513073 0.017607095 0.03005766
000040 a4 cb ba 3c 6f 18 22 3d fe 40 2c 3d f1 a4 dc 3c
       0.022802182 0.039574083 0.04205417 0.026934119
000050 ba 7a 12 3d ba 14 4c 3c 57 8c 2b 3d 58 ca 0b 3d
       0.035761572 0.0124561135 0.041881885 0.034128517
000060 d7 0b 84 3c 55 41 af 3c 46 65 0e 3d 22 b5 cd 3c
       0.016118927 0.021393457 0.03476455 0.025110785
000070 e5 e1 9d 3c 83 5c b6 3c 8b aa 4b 3d 77 36 b2 3c
       0.019272754 0.02226091 0.04972319 0.021754486
000080 64 54 9a bc f9 c4 99 bc ab 05 26 bd f6 bd f0 bb
       -0.018839069 -0.018770682 -0.04053275 -0.007346864
000090 4c 38 8c 3b f4 8a 31 bc c2 93 d0 bc 20 2b d7 bc
       0.004279172 -0.010836352 -0.025461081 -0.02626568
0000a0 28 3f 1c 3d 18 01 33 3d d0 83 42 3d 52 7e c6 3c
       0.038146168 0.043702215 0.047488987 0.024230156
0000b0 e9 89 0c 3d df 44 65 3d a8 41 1b 3d 3b 11 6a 3d
       0.03431121 0.055973884 0.03790441 0.05714534
0000c0 7d 50 aa 3d fe 9b 96 3d 84 e3 38 3d 44 dc 77 3d
       0.08316133 0.07353972 0.04513885 0.060512796
0000d0 fd cd b1 3d e3 f2 4f 3d a2 aa 82 3d 41 47 a2 3d
       0.08681867 0.050768744 0.06380202 0.07923747
0000e0 8c 43 6a 3d 66 c8 5c 3d ec 50 7e 3d 17 88 3d 3d
       0.057193324 0.053902052 0.062088892 0.046272364
0000f0 2a 00 30 3d b1 fe 83 3d 0b e3 56 3d b5 ff 26 3d
       0.042968906 0.06445063 0.05246262 0.040771205
000100 d8 07 22 3d 95 5c e3 3c 5c 4e 78 3c f0 83 e1 3c
       0.03955826 0.027754107 0.015155401 0.027528733
000110 ed f6 0b 3d 47 cc ee 3b 02 9d 8e 3c 38 79 b6 3c
       0.034171034 0.0072875354 0.017408852 0.022274598
000120 ce 38 30 3c 8d 7f 28 bc a0 06 34 bc 98 18 a4 bc
       0.010755731 -0.010284317 -0.010987908 -0.020031258
000130 6f 69 95 bc 9e 76 ac bb 16 a6 a2 bb 3a e2 22 bc
       -0.018238751 -0.0052631637 -0.0049636466 -0.009941632
000140 df 3f b3 3c a2 7a 1e 3d 60 53 db 3c 2e 44 d7 3c
       0.021881042 0.03869117 0.026773155 0.026277628
000150 b3 70 c6 3c 22 a8 0d 3d e3 fc 8b 3c 3a 48 c8 3c
       0.024223661 0.034584172 0.01708836 0.024448503
000160 19 36 8a 3c 5e 17 a5 3c 32 55 3c 3c ae f9 fd 3c
       0.016871499 0.020152744 0.0114949215 0.031002846
000170 d3 ed c3 3b 94 08 3c 3c 97 b5 d2 3b 42 87 f9 3c
       0.0059792786 0.011476655 0.0064303386 0.030460004
000180 ab e6 d6 bc f3 ed 04 bd fe 32 bd bc e3 c4 ad 3b
       -0.026233038 -0.03245349 -0.023095604 0.0053030117
000190 cc be b1 bc 83 6f b9 bb c7 09 46 bc e8 cb 1b bc
       -0.021697424 -0.005659045 -0.012087292 -0.009509064
0001a0 20 2b da bc 96 fa 7d bc f5 39 9d bb d0 c8 f8 3b
       -0.026631892 -0.015501639 -0.004798169 0.007592298
0001b0 bd 8d 54 b9 a5 6b 8e bc 86 14 1f 3a 61 17 f1 bb
       -0.00020270697 -0.017385313 0.0006068427 -0.0073575233
0001c0 d3 8d 5f bd ad a1 28 bd 6e df 11 bd 0c 23 38 bd
       -0.054578613 -0.04116981 -0.03561347 -0.0449553
0001d0 1c ca 4e bd 55 fa 36 bd 03 37 ca bc 40 66 39 bd
       -0.050485715 -0.04467233 -0.024684435 -0.04526353
0001e0 ea 00 23 bd c1 31 3d bd d9 17 9b bb e3 ab 47 bc
       -0.039795794 -0.046190027 -0.0047330675 -0.012186977
0001f0 b6 f9 9c bc d3 92 ee bc c2 ef df bc 72 ff 14 bd
       -0.01916204 -0.029122746 -0.027336005 -0.036376424
000200 7c 62 e2 3b b8 b0 da 3c a9 ce b7 3c 55 5c 92 3c
       0.006908713 0.026695594 0.02243741 0.017866293
000210 60 25 eb 3c 9e 14 a4 3c 1b 78 97 3c df 6d 78 3c
       0.028704345 0.020029362 0.018489888 0.015162914
000220 13 da 1e bd a7 62 11 bd 6b e1 07 bd 8a 38 23 bd
       -0.03878219 -0.035494473 -0.03317396 -0.03984884
000230 e0 9b 4b bd 39 59 84 bd 1b 01 b2 bd 11 ac 06 bd
       -0.0497092 -0.0646233 -0.08691617 -0.03287894
000240 a9 a1 65 bc 34 f1 fb bb 97 90 24 bc 76 92 b5 bc
       -0.014015594 -0.0076886658 -0.0100442385 -0.022164565
000250 e9 4d ce bb 35 b2 40 bc 57 13 3e bc 68 b9 0d bc
       -0.0062959087 -0.011761238 -0.011601291 -0.008650161
000260 0b fc 8d bc 69 4d 01 bd 3e c1 3d bc 0f 9c 4a bd
       -0.017332098 -0.031567965 -0.011581717 -0.049465235
000270 c4 ed f2 bb 8e 9d 18 bd f4 7a 8d bc b0 e1 8f bc
       -0.007413598 -0.03725963 -0.017270543 -0.01756367
000280 80 8c b5 bc 84 ac 24 bd f4 c1 5f bd 41 b0 69 bd
       -0.022161722 -0.040203586 -0.054628327 -0.057052854
000290 21 3b 84 bd 3d 50 21 bd ca 02 6f bd 8f 86 7c bd
       -0.064565904 -0.03938316 -0.05835227 -0.061651763
0002a0 d9 ce 00 3d 44 c5 4e 3c 20 71 e9 3c d2 54 bb 3c
       0.031447265 0.012620274 0.028496325 0.022867594
0002b0 97 0b 00 3d c7 f8 ed 3c 88 a6 97 3c 85 0b 7a 3c
       0.031261053 0.02904929 0.018512025 0.0152615355
0002c0 b5 a2 c9 bc 4c df 68 bb dd 16 15 bc ec ee f6 bc
       -0.024613718 -0.0035533486 -0.009099689 -0.030143224
0002d0 69 a2 26 bd aa 27 cc bc 1c 21 86 bc 9f bd 4d bc
       -0.04068223 -0.024921257 -0.01637321 -0.012557416
0002e0 44 d9 ac 3c 4f e1 4e 3c 13 01 0b 3b a6 60 08 bb
       0.021099694 0.01262696 0.0021210357 -0.002080956
0002f0 7a 1c ee 3c 76 cc 00 3c 0c 21 e3 3c 50 20 78 3c
       0.029066313 0.007861247 0.027725719 0.015144423
000300 50 59 d8 ba 26 9a 74 3c c2 d8 a3 3c 5c cc 8c 3c
       -0.0016506109 0.01492933 0.02000082 0.01718729
000310 0e 0f ab 3c 56 36 16 3c c3 97 e4 3b 50 a8 a8 36
       0.020881202 0.009168228 0.006976099 5.0263843e-06
000320 86 2e 1d bd 90 18 07 bd a2 e8 aa bc a0 55 03 bd
       -0.038374446 -0.03298241 -0.020862881 -0.03206408
000330 59 bd 9e bd 96 f6 2c bd cb c3 60 bd 65 71 60 bd
       -0.07750959 -0.04222735 -0.054874223 -0.05479564
000340 26 31 6d bd 12 d8 83 bd 00 84 2f bd 05 78 6c bd
       -0.0579082 -0.064376965 -0.042850494 -0.057731647
000350 b1 8c 3f bd c8 c6 43 bd b8 fd fd bc a8 cb 14 bd
       -0.046765033 -0.047796994 -0.031004772 -0.036327034
000360 6a ff f1 bc 79 3e df bc a8 22 c9 3b 19 0e f5 bc
       -0.029540736 -0.027251469 0.0061381646 -0.029913949
000370 97 88 8f bc 34 a0 72 bb 6f 65 cf bc e9 38 5b bc
       -0.017521186 -0.0037021758 -0.025316922 -0.013380268
000380 f8 83 2a bc 38 a3 03 bd 37 ae 1b bd 0a 44 af bc
       -0.01040744 -0.03213808 -0.03800794 -0.021394748
000390 d9 a0 b3 bc ed ba e1 bc 94 20 59 bd fd e8 15 bd
       -0.021927284 -0.027554953 -0.053009585 -0.036599148
0003a0 a0 22 ca bc 5f 0a 46 bd 6d 3e 54 bd 84 32 77 bd
       -0.024674714 -0.048349734 -0.051817346 -0.06035091
0003b0 f2 48 41 bd 6d 72 1c bd cb 4d f1 bc a9 37 37 bd
       -0.047188707 -0.038195062 -0.02945604 -0.044730816
0003c0 88 d7 18 3d 2b b8 53 3d 98 0a 10 3d a8 57 04 3d
       0.03731492 0.051689308 0.035166353 0.032310158
0003d0 58 c9 18 3d ab 54 5c 3d 2c b2 19 3d 91 32 e0 3c
       0.03730139 0.053791683 0.037523434 0.027367862
0003e0 9d 78 83 bb 25 43 7a 3c ca a7 a3 3c 93 9d aa 3b
       -0.004012181 0.015274798 0.019977469 0.0052067726
0003f0 78 56 15 3c b5 1b 9d 3c 48 55 2d bb f4 8e 05 39
       0.009114854 0.01917825 -0.0026448537 0.00012737123

sequential/dense_3/BiasAdd/ReadVariableOp:0 f4 [8]
000000 ea 29 0c 3c 77 51 ce 3b 5f 85 3e bc 1a 5f e3 bb
       0.008554915 0.0062963325 -0.011628478 -0.006938827
000010 41 44 0a bc 9b 0d aa 3c a0 01 20 3c 8b 60 b9 bc
       -0.008439125 0.02075844 0.009766012 -0.022629043

sequential/dense_2/MatMul/ReadVariableOp:0 f4 [256, 128]
000000 32 67 51 3d 8f 72 ba bd 48 be bc 3d a7 f4 25 bb
       0.051123805 -0.091038816 0.09215981 -0.0025322826
000010 04 7a de bc 29 c5 09 3d 6a 69 84 3d 06 d5 98 3d
       -0.027157791 0.033635292 0.06465419 0.07462506
000020 ea f2 14 3e 66 60 7c 3d 33 ed 95 bd 0c 46 16 be
       0.1454579 0.06161537 -0.07320633 -0.14675158
000030 5c f7 37 3d c0 a2 a7 bd b6 a7 01 be 57 18 c6 3d
       0.044913635 -0.08185339 -0.12661633 0.09672611
000040 2a 22 e2 3d fe fc df bc ff e6 f0 bd 05 22 ce 3d
       0.110416725 -0.027342316 -0.11762809 0.100650825
000050 70 a4 e4 bd 35 99 f3 3d 68 02 bb bd 48 14 53 3d
       -0.111641765 0.11894456 -0.09131318 0.051533014
000060 8b 7b f3 bc 0b c8 6a bc 12 55 87 bd 4a d2 bc 3d
       -0.029721996 -0.0143299205 -0.06608023 0.09219797
000070 7b 95 4e 3c 26 b1 aa 3c 27 20 e1 bd 06 4f 0c be
       0.012608881 0.020836424 -0.10992461 -0.1370202
000080 92 49 cf 3d 4a a7 95 3d d3 72 85 3c 1e 53 b8 3c
       0.10121454 0.073072985 0.016290104 0.02250057
000090 bf 66 a0 3d b5 31 c2 3d 50 ec 15 be 46 48 10 be
       0.07832097 0.09482137 -0.14640927 -0.1409007
0000a0 f8 aa b4 bd 7e c7 df bd f6 d4 09 be a0 71 9f 3d
       -0.08821672 -0.10926722 -0.13460144 0.07785344
0000b0 89 c1 87 ba 07 01 be bc f1 b8 77 3c af b4 c2 3d
       -0.0010357361 -0.02319385 0.015119777 0.09507119
0000c0 e1 61 f2 3c 4e 27 1c bc 91 52 80 3a b1 ee d3 3c
       0.029587688 -0.009530855 0.0009790232 0.025870653
0000d0 57 0c d3 3d 87 11 40 3c 9e e0 d0 bc 6a e7 dc bc
       0.10305088 0.011722929 -0.02549773 -0.026965816
0000e0 30 75 40 3d f0 15 23 bd 8a ab 1b bb 71 8c d9 3d
       0.04698676 -0.039815843 -0.0023753368 0.1062249
0000f0 29 99 61 3d 3b 6c 69 3d 39 5b d7 bb 36 90 d6 bd
       0.055077706 0.056987982 -0.006572154 -0.10476725
000100 3b 22 04 be 39 28 7e bd f3 67 03 3e 6e 5a 0b bc
       -0.12903683 -0.062050078 0.12832622 -0.008505447
000110 32 52 88 3d 1d 22 93 3c 53 a2 1e bd cd 92 f4 bd
       0.066563025 0.017960602 -0.038729023 -0.119420625
000120 61 16 8e 3d 5b fa 38 3d 56 83 92 3d c3 57 9b 3d
       0.06937862 0.045160633 0.071539566 0.075850986
000130 18 bb b5 bd 6a 7f 63 bd d1 82 0b be f5 28 21 be
       -0.08873576 -0.055541433 -0.13624121 -0.1573828
000140 86 cb 1b be e8 7a de 3d ca dc 37 bc 03 f3 c5 3d
       -0.15214357 0.10863286 -0.011222074 0.096654914
000150 90 45 06 bd 13 8d c6 3d e4 47 3e bc 2b 30 38 bd
       -0.032781184 0.096948765 -0.01161382 -0.04496781
000160 59 4f e6 3c 0a bb 1a 3e 7c dc b4 bd d1 2b 20 3c
       0.028114008 0.15110412 -0.088311166 0.009776072
000170 f7 93 1f bd 57 ea 91 bb 8a 5d b0 bd e9 b7 de 3d
       -0.03895947 -0.0044529843 -0.08611591 0.10874922
000180 05 29 04 bd 04 31 e9 3d e5 ff ce bc 4e f0 7f 3c
       -0.03226568 0.11386302 -0.025268504 0.015621258
000190 84 b2 2a bb 2d a6 19 be 81 66 33 3d 49 6b 86 bd
       -0.0026046345 -0.15004797 0.043798927 -0.06563432
0001a0 6f 27 10 3e a7 8e ed bd de 03 84 bd 25 e9 6b 3d
       0.14077543 -0.115994744 -0.0644605 0.05759539
0001b0 42 ab 29 bd 72 6c ce bc 12 ac 82 3d 22 43 dc 3d
       -0.04142309 -0.025198195 0.06380476 0.10754992
0001c0 a2 1a 22 3d 1c 70 dd 3d e9 64 5a bc f5 d6 9c bc
       0.03957618 0.10812399 -0.013329723 -0.019145468
0001d0 ed 03 91 3d 60 36 23 bd 67 20 bd 3d 33 5f a6 bd
       0.07080827 -0.039846778 0.09234696 -0.081236266
0001e0 10 ab c8 bd 66 79 80 bd 48 c5 7d 3d 4e a8 f8 bd
       -0.097982526 -0.06273155 0.06195572 -0.121414766
0001f0 65 20 15 bd 39 d0 cb bd 39 87 a4 bc 9f 7f e4 bc
       -0.036407847 -0.09951825 -0.02008401 -0.027892886
000200 73 1a 83 bd 0b 6c 18 3c 25 00 89 bd a5 4d d2 bc
       -0.06401529 0.009303103 -0.06689481 -0.02567179
000210 51 a6 98 3d b2 21 c1 bd eb 26 b4 3d 15 35 45 bc
       0.07453597 -0.09430255 0.087964855 -0.0120365815
000220 25 ab 0f 3d ee 09 a3 bc 68 00 de bd 03 6a c8 3d
       0.035075326 -0.019902196 -0.10839921 0.09785845
000230 9b dc ad bd 3d 99 ac 3d b7 c3 06 3d 65 b6 25 bd
       -0.08489343 0.084276654 0.032901492 -0.040457148
000240 c8 5f 96 3d 4e 21 91 bc 97 f5 04 3e 00 0c e6 3d
       0.073424876 -0.017716076 0.1298431 0.112327576
000250 b1 78 e1 3c 85 c5 10 3e 98 49 ab bd 60 8b db 3c
       0.02752337 0.14137848 -0.08363646 0.026799858
000260 93 46 db 3d 54 82 01 bd e5 97 11 bd f7 fc 67 bc
       0.1070682 -0.03161843 -0.03554525 -0.014159433
000270 b0 f1 f7 bb 6c 9d 93 bd ea 26 e9 3d a2 b4 ad bd
       -0.007566653 -0.0720776 0.113843754 -0.084817186
000280 ec 9a 4d 3e 70 c6 fc bd 7d 36 05 bd 17 53 ed 3d
       0.2007863 -0.123425364 -0.032522667 0.11588114
000290 a0 42 ab bd 58 a4 a6 3d 0a 30 89 3d c0 fd 48 3d
       -0.08362317 0.08136815 0.06698616 0.04907012
0002a0 c0 91 b9 bb f8 9b 14 be 59 d4 94 3d 90 a2 da 3c
       -0.0056631267 -0.14512622 0.072670646 0.026688844
0002b0 9a 05 a1 3d 86 4b cb bd ac cf 0b 3d 94 0c c4 bd
       0.078623965 -0.09926514 0.0341336 -0.095727116
0002c0 d6 46 5f bc 7e 61 07 3e 45 4a c0 bd a0 9e 82 bd
       -0.013627728 0.13220784 -0.09389166 -0.063779116
0002d0 b3 9e c1 bd 2f 35 a5 3d 70 a0 b6 bd 36 6c a1 3d
       -0.094540976 0.080667846 -0.0891732 0.07881968
0002e0 c3 58 40 ba a2 81 35 3d 65 83 0a 3e da 90 c4 3d
       -0.0007337445 0.04431308 0.13526686 0.09597941
0002f0 39 ca 92 3d f3 8a f4 3d f0 5c b4 3b 63 ec 91 3d
       0.07167477 0.11940565 0.005504243 0.07125165
000300 51 d4 b3 bd 7c 80 3b bd c7 39 04 3d 8f 15 e1 bd
       -0.087807305 -0.04577683 0.032281663 -0.1099044
000310 b1 a7 8d bd 15 e1 de 3d d2 38 37 3d 99 99 b4 bd
       -0.0691675 0.10882775 0.044731922 -0.08818359
000320 55 9b 5d bc d5 39 d9 bb 7b 0f 3c 3d 5c 5e 27 bd
       -0.013525804 -0.0066292086 0.0459132 -0.040861472
000330 03 a8 2b 3c 22 2b c4 3d 44 97 0b be 5a 11 84 bd
       0.010477069 0.095785394 -0.13631922 -0.06448622
000340 5e a6 13 bd 8c 3c de bd 08 7d 45 bc 2a 90 b6 3c
       -0.036047332 -0.10851392 -0.012053736 0.02228554
000350 87 7c bf bd 97 3e 3c 3c d1 80 56 bc 15 32 0c 3d
       -0.093499236 0.011489532 -0.013092236 0.03422745
000360 c4 1f 84 3d e7 46 0d 3e b1 8e 21 3d d5 54 b1 3d
       0.06451371 0.13796578 0.03944272 0.086587586
000370 c9 23 78 bd 27 85 45 bb 65 30 d5 3d 3e c9 1d 3e
       -0.060581002 -0.003013918 0.10409621 0.15408799
000380 6b cd 7d ba 58 cc a4 bd 2e 5e 84 bc f8 b0 40 3c
       -0.0009681794 -0.08046788 -0.01615819 0.011760943
000390 98 62 dd 3b 6d ee d7 3d f3 99 a8 bd 88 d3 c9 3d
       0.006756138 0.10543523 -0.082324885 0.098547995
0003a0 40 b9 d5 bd cb 8c 9c bd 69 b8 f2 bd 54 8b 7d 3d
       -0.10435724 -0.07644042 -0.1185158 0.06190045
0003b0 61 8f 28 bc 81 2a 83 bd f2 e6 82 bd 63 05 d7 bd
       -0.01028809 -0.06404591 -0.063917056 -0.10499074
0003c0 d0 91 30 3c 01 be f3 3c 4f d0 97 3b 36 b0 b0 bc
       0.010776952 0.029753687 0.0046329866 -0.021568399
0003d0 ce fb 84 bd 97 ba c8 bd cb 97 5b 3d ac ec 47 3d
       -0.064933404 -0.09801214 0.053611558 0.048809692
0003e0 33 e1 45 bd 72 6c 85 3d 6a 6a bd bc a0 dd 7d 3d
       -0.04831047 0.06514825 -0.023122031 0.061978936
0003f0 14 5d 58 3d f4 4c f9 bd ac 38 35 3c 8b c2 8a bd
       0.05282314 -0.12172881 0.011060875 -0.067753874

sequential/dense_2/BiasAdd/ReadVariableOp:0 f4 [128]
000000 22 b5 24 bd 5c 3f 00 bc 53 82 66 3c af 40 67 3d
       -0.040211804 -0.007827606 0.014069158 0.05645817
000010 bd 22 f9 b9 4b 32 e8 3b 74 6b ea 3c 71 15 92 3d
       -0.00047518863 0.0070860735 0.02861569 0.07132996
000020 43 c0 04 3c b8 52 18 bd dd c3 b2 3a f9 04 5f 3c
       0.008102479 -0.03718826 0.0013638694 0.013612025
000030 18 90 b3 bc 3a 26 04 3b d6 0e 22 bd 89 ad fa 3b
       -0.021919295 0.0020164386 -0.03956493 0.0076500815
000040 7c cf 20 3c 51 07 69 bc fa 89 7d bb 55 da 83 bc
       0.009815093 -0.014222936 -0.0038686977 -0.01609532
000050 3d 36 02 3d 5e 71 a1 bc b3 88 ef bc 9d 4b 37 3c
       0.031790007 -0.019707378 -0.029239988 0.011187461
000060 64 ae 05 3c cb 07 34 bb 3d bf 21 3d 81 64 a6 bb
       0.008159254 -0.0027470465 0.03948902 -0.005077899
000070 5b f1 85 bc 7f 69 9b 3b 07 78 06 bc f3 40 34 bc
       -0.016350439 0.0047428007 -0.008207328 -0.011001813
000080 f4 92 cc bc 42 ec f3 3b 1f 5b 74 3d 8b 09 89 bc
       -0.024972416 0.0074439356 0.059657212 -0.016728183
000090 d5 c3 ab 3c ac 88 b6 bc d3 5f 83 3c fc 1f b1 bc
       0.020967403 -0.022281967 0.016036903 -0.021621697
0000a0 1e 87 27 bd f0 eb 84 3c ff c4 e3 3b 09 5e 2a 3d
       -0.040900342 0.016225785 0.006950974 0.041593585
0000b0 1a 56 bd 3c 53 1a f5 3c 37 19 93 bc 14 4f d4 3c
       0.023112345 0.029919779 -0.01795636 0.025916614
0000c0 6b 33 8d 3d fe a4 22 3d 71 90 75 bc 9c 11 c9 bc
       0.06894573 0.03970813 -0.014988051 -0.02454453
0000d0 22 01 a2 bc bd c9 01 3d d7 a9 02 bd 3e ec 5d bb
       -0.01977593 0.031686533 -0.031900253 -0.0033862735
0000e0 63 b4 4d bd e9 33 12 3d 42 72 ff b8 1d 91 23 bc
       -0.05022086 0.035694037 -0.0001218063 -0.009983328
0000f0 58 a5 25 3b 2b 2d 19 3c a7 d0 4a 3c e9 c5 c7 3c
       0.0025275555 0.009349148 0.012378848 0.024386363
000100 f1 e3 6c 3d 0a ab 1a 3d e0 3a 04 bd 3c 73 ee 3b
       0.05783457 0.03776077 -0.03228271 0.0072769206
000110 4f 4a 43 3b 7b b3 e9 3c 9c 84 d0 bc 43 5e 5a 3b
       0.002979893 0.028527966 -0.025453858 0.0033320345
000120 fd 20 66 3c b1 ae a3 bb 9d 76 02 3c 2b 63 07 3d
       0.014045951 -0.00499519 0.00796285 0.03305356
000130 c6 5b 18 3d 05 5c a9 3d 9a 12 d8 bc 11 17 5b 3d
       0.037196897 0.082695045 -0.026376057 0.053488795
000140 ef 0d 30 3d a4 8f 7e bc 57 b3 0e 3d df a7 0c 3c
       0.042982038 -0.015537176 0.034839 0.008584945
000150 c3 2f 77 bc 2b 71 bb 3c 51 62 e4 3b 48 d9 20 3d
       -0.015087071 0.022881111 0.006969728 0.039269716
000160 e0 d2 75 bc 5c da a0 3c 10 4e d3 3c eb dc e9 bc
       -0.01500389 0.019635372 0.025794059 -0.028547725
000170 e1 9a 56 3d 27 b5 ab bc 09 03 05 3a ce 6a a3 bc
       0.052393798 -0.020960404 0.00050739996 -0.01994839
000180 4f 46 26 bd 7f 14 81 bd 4e e7 db 3b 36 7a 92 3d
       -0.040594395 -0.063027374 0.0067109233 0.07152216
000190 69 73 11 3d 1b 9e 1e 3d a4 14 15 3d 80 23 18 bc
       0.035510454 0.038725 0.036396638 -0.009285808
0001a0 e4 04 89 3d ac b3 f6 3c f4 5f 26 3d d1 cb 93 3c
       0.06690386 0.030114971 0.04061885 0.018041523
0001b0 26 06 b1 3c b1 d1 12 3c 8c 9f a4 3d d7 9e 6e 3d
       0.021609377 0.008961127 0.08038244 0.05825695
0001c0 d5 54 57 3d dd 99 c6 ba 1f ba 86 3d 88 58 84 bc
       0.052571137 -0.0015152056 0.065784685 -0.016155496
0001d0 30 f1 93 3c a1 ca ad 3c 97 f5 35 3d 26 75 05 bd
       0.018059343 0.021214785 0.044423666 -0.032582425
0001e0 51 2f b1 bc 9f 24 6e bb 64 c8 93 bc f6 46 34 bc
       -0.021629008 -0.0036337746 -0.01803989 -0.0110032465
0001f0 e9 8d 47 3c b6 67 01 3d 6f 96 ad 3c a9 79 f3 bc
       0.01217983 0.031593047 0.021189896 -0.029721098

sequential/dense_1/MatMul/ReadVariableOp:0 f4 [512, 256]
000000 fd 63 93 bd a3 7d 0c bc 2b 1c 38 bd 5b f3 bf bc
       -0.071968056 -0.008574876 -0.044948738 -0.02343147
000010 6e 1b 79 3d 08 94 67 3c db be 14 bc 59 c5 fc bd
       0.060817175 0.0141344145 -0.009078707 -0.123423286
000020 41 1a cc bb 9e 95 81 3d b0 12 ab bd fe d0 ac bc
       -0.0062287156 0.06327365 -0.08353174 -0.021095749
000030 76 ef 45 bb 73 4d 59 bd fc 94 7e 3c 79 de d0 3d
       -0.0030202544 -0.053052377 0.01553845 0.10198683
000040 a9 46 18 3d 7f c8 ae ba a1 db 1a bd a1 20 7d 3b
       0.03717676 -0.0013334899 -0.03780711 0.0038624185
000050 fc ce 02 bc 3d 3d 8e 3c 11 0f da bd ee fa 97 3d
       -0.007983919 0.017363185 -0.10647405 0.07420908
000060 e2 bb 7e 3d 28 e3 db bc 6a 3e 8c 3c 37 c4 8e bd
       0.062190898 -0.026841715 0.017119605 -0.06971019
000070 99 b9 4f 3c 9d 90 6b 3d df 3f e1 bc 04 84 c8 bd
       0.012678527 0.05751096 -0.027496276 -0.09790805
000080 d4 39 1f bd a5 10 27 3d 83 39 b8 3d c2 3a 1b 3d
       -0.03887351 0.040787358 0.089953445 0.037897833
000090 f5 7e 33 bd 3c 73 ea bb e9 8e e0 bc 17 59 9c 3d
       -0.043822248 -0.0071548503 -0.027411895 0.0763418
0000a0 3c 8d a2 bc ca 4b 33 bd e5 42 2c 3c b8 9b af 3d
       -0.019842736 -0.04377345 0.010513996 0.08574623
0000b0 ce 59 09 bd 6c c0 1e 3c a2 33 45 3d d1 f6 ba 3c
       -0.03353291 0.009689432 0.048144944 0.02282277
0000c0 02 a2 03 bd d9 23 4e 3c 14 72 18 3c e2 ee 45 3d
       -0.032136925 0.012581789 0.009304542 0.04832352
0000d0 d1 4b 8e bd da 62 7e 3c d3 57 9a 3d 65 17 a5 bc
       -0.069480546 0.015526498 0.075362824 -0.020152757
0000e0 3f e0 94 bd 87 c0 6e bd 93 6a 7d 3d f9 6b 5b bd
       -0.07269334 -0.058289077 0.061869215 -0.053569768
0000f0 16 31 c8 bc 79 f5 af bd 25 1d 66 bd 9a 84 c4 bc
       -0.024437468 -0.08591742 -0.05618014 -0.02398901
000100 d7 79 cb bd 55 94 10 3d 60 40 f8 bb 65 ba 93 bc
       -0.099353485 0.03529771 -0.0075760335 -0.018033216
000110 98 f7 75 3d 4f 3e a9 bd 60 01 bb 3d 98 39 42 3d
       0.060050577 -0.082638375 0.09131122 0.047418207
000120 6d 40 3b 3d 46 95 11 3d cf 65 a6 bd b6 04 7f bb
       0.045715738 0.03554275 -0.08124887 -0.003891272
000130 e4 9c 3f 3d 1b 56 b6 3c 89 9a 92 3c 56 06 6a bd
       0.046780482 0.022257855 0.017895954 -0.05713495
000140 06 97 b7 3c b1 88 31 3d 27 27 85 bc 3d 0b 47 3d
       0.02241088 0.04334325 -0.01625402 0.048594702
000150 2d 83 90 3d 6e 73 33 bc 11 22 99 bd e2 f6 c1 bd
       0.0705627 -0.010952814 -0.07477201 -0.09470917
000160 66 16 96 3d f0 0d 3a 3d 03 d2 cd 3d 4a 35 29 bd
       0.07328491 0.045423448 0.10049822 -0.041310586
000170 66 f8 9a bd bf 01 7a bd 0a 6e 09 3c e9 07 91 3c
       -0.075669095 -0.06103682 0.008388052 0.017703967
000180 cb 89 46 3c 14 da 93 3d e1 c6 40 bd a1 2c 6d bd
       0.012117813 0.072193295 -0.047064666 -0.05790389
000190 23 a7 65 bd 83 cc 49 bd f1 dc 99 3d 04 18 2b bc
       -0.056067597 -0.049267303 0.07512844 -0.0104427375
0001a0 a5 7e 05 bd cf 08 de 3c 79 15 6f 3d 63 fd c7 bc
       -0.03259148 0.02710381 0.058370087 -0.024412816
0001b0 3e 66 e3 3c 83 51 3e bd d1 64 8e 3b ff 03 7d 3d
       0.027758714 -0.046464454 0.0043455143 0.06177139
0001c0 b9 3a a6 3d 6d 05 39 bc c8 0b 6a bd 24 ac dd 3c
       0.08116669 -0.0112927975 -0.05714014 0.027059622
0001d0 74 2d 07 3e c0 48 08 bd 0a 62 b8 3b ab 0d 85 bd
       0.13200933 -0.033272505 0.0056269215 -0.064967476
0001e0 fe 9c 2d 3d 64 c2 60 bd a8 c1 5e bd 47 7c 3b bd
       0.042386048 -0.054872885 -0.054383904 -0.045772817
0001f0 cb ed df bc e2 68 c8 bc a8 b1 58 bc c4 54 07 bb
       -0.027335068 -0.024464075 -0.01322595 -0.002064989
000200 42 8c a3 bc 8f 69 1d bd 53 ff ff 3a 16 22 81 3c
       -0.019964341 -0.038430747 0.0019531049 0.015763324
000210 ac a8 5b 3c 1c 3a 9e bd fb c5 80 bd 6e ae 14 bb
       0.013406914 -0.07725927 -0.06287762 -0.0022686976
000220 4b 4d 71 3d 66 45 06 be 44 6f 8f 3c f5 f0 0e bc
       0.058911603 -0.13112411 0.01750911 -0.008724441
000230 e5 6b 54 3d 78 52 ec 3b 0e c3 03 3d cf 19 8c bd
       0.05186071 0.0072119795 0.03216844 -0.0684086
000240 2a ac d4 bb bc 68 5d 3d 5d 0b a5 bd 01 7f 80 bc
       -0.00649025 0.05405496 -0.08058808 -0.01568556
000250 1a 88 0e bd 86 20 f7 bb 58 72 52 3c ae fe 92 3d
       -0.034797765 -0.007541719 0.0128446445 0.071774825
000260 21 35 2e bd 26 3d a1 3d 5a a9 c3 bc 45 1d 37 bd
       -0.042531136 0.07872991 -0.023884464 -0.044705648
000270 ac 04 27 3d a1 66 80 bd 84 ee f6 3c 38 2b 5d 3d
       0.04077594 -0.06269575 0.03014303 0.053996295
000280 32 d7 c1 3c 0c f4 d6 3c d7 5c f0 bc 07 68 2d 3d
       0.023662183 0.026239417 -0.029341144 0.042335536
000290 79 19 8c bd 59 e8 c2 bc cd 66 32 bc 57 c0 f0 3c
       -0.06840796 -0.023792433 -0.010888767 0.02938859
0002a0 c6 fd 24 3d 58 cb a0 3c 51 d1 cb bc 52 40 24 3c
       0.04028108 0.019628212 -0.024880083 0.010025101
0002b0 47 e2 ba bd 1f 20 ed 3c bd c8 bd bd a1 b7 9b bc
       -0.0912519 0.02894598 -0.092668034 -0.01900846
0002c0 75 39 6e 3d bc af 19 3d b0 34 c5 bb 40 40 8f bd
       0.058160264 0.03752111 -0.0060182437 -0.069946766
0002d0 d9 15 77 bd a0 af aa 3b 89 04 ae 3c 16 49 88 3c
       -0.06032357 0.0052089244 0.021242397 0.016636413
0002e0 55 96 9f bd 43 19 3d bd 75 e9 1f bd 4b 85 8d 3d
       -0.077923454 -0.04616667 -0.039041 0.06910189
0002f0 02 36 20 bb 27 ba bd bd 86 22 53 3c 48 2f 54 bd
       -0.0024446254 -0.09264021 0.012886649 -0.051802903
000300 64 0c 45 3d df f9 8b 3d 87 f4 b6 bd bf 8a 82 3d
       0.04810752 0.068347685 -0.08933359 0.0637412
000310 5f 28 e6 3d d7 bc ed bd 41 43 26 3d b6 11 0d 3d
       0.11238169 -0.11608284 0.040591482 0.03444072
000320 fd bf 5b 3c ae 9a 56 3d 87 71 ab 3d 2b 8c e2 3d
       0.013412473 0.052393608 0.08371263 0.11061891
000330 ae 98 b0 bc 75 eb d3 bc 25 9c d1 bc 65 63 9a 3d
       -0.021557178 -0.02586911 -0.02558715 0.07538489
000340 8f 37 03 3d 62 6b b1 bd 6f ce 56 3d a4 d1 44 bd
       0.032035407 -0.0866306 0.052442964 -0.04805149
000350 14 27 a4 bd 2f 53 1b 3c c7 68 6e bd e1 fa a9 bd
       -0.08015266 0.009480282 -0.058205392 -0.082998045
000360 65 11 a9 bd b1 24 e9 bc 06 67 93 bd 4f 0d 7b 3d
       -0.08255271 -0.028459879 -0.071973845 0.06129199
000370 75 77 37 bd 80 d7 be bc 6e 02 1f 3d 1a ba 5e bc
       -0.044791657 -0.023296118 0.038820677 -0.013594175
000380 72 ca 30 3d 33 0c cd 3d 92 cb 97 bd 8a 02 97 3d
       0.043161817 0.100120924 -0.07411875 0.07373531
000390 c4 1f e1 bc e3 3e ab 3d 7e c9 16 3c ad 5f 95 bc
       -0.027480967 0.08361604 0.009203313 -0.018234098
0003a0 97 ab 69 3b f6 28 4e bd 52 e1 c3 bd 9a 02 9c bb
       0.0035655254 -0.050332032 -0.09564461 -0.0047610523
0003b0 38 71 b8 3c 62 07 04 bd 07 5f 60 bd 8f 0c 22 3d
       0.022514924 -0.032233603 -0.054778125 0.039562758
0003c0 bc 1e 58 3d 7c ff 4c bc f2 eb 17 3d a0 46 68 bd
       0.052763686 -0.012512084 0.03709025 -0.05670798
0003d0 6e d3 86 3d 5a 39 e5 bd ca 26 78 3d 0a 6c 57 bd
       0.06583296 -0.111925796 0.060583867 -0.05259327
0003e0 08 f9 e2 bd 38 ba d6 b9 a1 45 9f 3d cd d4 4d bd
       -0.11082655 -0.00040956005 0.077769525 -0.05025177
0003f0 31 5d 18 3d 58 34 5d 3d 90 45 72 3d 98 c6 d0 3c
       0.03719825 0.054004997 0.05914837 0.025485322

sequential/dense_1/BiasAdd/ReadVariableOp:0 f4 [256]
000000 95 f5 9f 3c 9f a4 ee bc c0 d3 a4 3c 1f 57 2e bc
       0.019526282 -0.029131232 0.020120502 -0.0106408885
000010 d2 64 74 3d 64 07 89 3c 0e e2 50 bd f6 86 90 3c
       0.059666462 0.016727157 -0.050996833 0.01764248
000020 d5 52 34 3c 92 dc 37 3d f7 c6 35 3d 97 42 d4 bc
       0.011006077 0.044888087 0.0443792 -0.025910659
000030 b2 f9 21 bc c6 9c 67 bd e6 72 0c 3d fb 4d 99 3c
       -0.009886192 -0.056545995 0.034289263 0.018713942
000040 f3 fd 3a bc 2b 98 17 3d 88 7c 07 38 34 df 06 bd
       -0.011413085 0.037010353 3.2302487e-05 -0.032927707
000050 35 a0 8a bc 6e 6e ad 3c c2 b1 9e bd c5 75 21 bc
       -0.016922096 0.021170821 -0.07748748 -0.009854739
000060 e5 40 01 3d 29 15 de bc e4 a4 5a 3c 10 51 dc bb
       0.03155603 -0.0271097 0.013344977 -0.0067235306
000070 50 b7 3b 3b d9 27 8c bb 72 7a fb 3b 0c d7 60 3a
       0.0028643198 -0.004277211 0.0076745087 0.00085769664
000080 7e 9e af 3b 9b ab 98 bc fa 70 8c b9 37 0f a6 3c
       0.00535947 -0.018636515 -0.00026787055 0.020270927
000090 14 54 eb bb 5b 9f cf bc 4c 94 f0 3c ea ff 63 bb
       -0.0071816538 -0.025344541 0.029367588 -0.0034789988
0000a0 4e 4a 4a 3c e7 12 f5 bc a4 c3 c6 3c c5 51 3b 3c
       0.012346817 -0.02991624 0.02426321 0.01143307
0000b0 75 a4 b4 bc 3b 2e 8b bc ed 4a 56 3d f6 ea 81 bc
       -0.022051075 -0.016989818 0.05231755 -0.015859108
0000c0 34 55 82 ba 9b 16 91 3c 3c a3 23 bd 63 25 0e bb
       -0.0009943605 0.017710974 -0.039950594 -0.0021689765
0000d0 96 36 51 bd 1d da 7b 3d 1a e0 09 bc ad 29 52 3d
       -0.051077448 0.061487306 -0.008415246 0.051309276
0000e0 e9 6e 45 3c 2d ce 65 39 31 92 a4 bc f5 1f 82 bc
       0.012050369 0.00021915948 -0.02008924 -0.015884379
0000f0 df f7 e4 3b c6 e9 3a bc 23 a0 2d 3d 7c 8d a9 3c
       0.0069875563 -0.011408275 0.042389046 0.020697348
000100 06 77 94 3b 06 c3 ac bc 0c 0b 6a bd b4 38 ca 3c
       0.0045307903 -0.021089088 -0.05713944 0.024685241
000110 8b 44 fd 3a 6b 3e 7a bc 62 fb 7f 3c 4d ad d6 bc
       0.0019322796 -0.015273671 0.015623899 -0.026205683
000120 b9 68 fe 3c 62 5c 05 bc 8a f1 a2 3c 91 c0 6d 3d
       0.031055795 -0.008139702 0.019890565 0.058044974
000130 7a 18 df 3c 4a 9d 2e bc 2b e0 9c bc 94 fe 73 3b
       0.027233351 -0.010657618 -0.01914986 0.0037230598
000140 7c 9f 11 ba 2d 8c 1b 3c 83 f1 47 3c d6 4b e5 bc
       -0.0005555076 0.00949387 0.012203577 -0.027990263
000150 95 a0 42 bd 52 57 8e bd 25 95 a0 bc ec a4 c6 3c
       -0.047516424 -0.06950249 -0.019602368 0.024248563
000160 00 d8 2f bc c9 2a 5c bb 75 ec 3a 3c 6c 59 64 bc
       -0.010732651 -0.0033594838 0.011408915 -0.013937335
000170 fe 49 ac 3c 77 63 13 bd d0 e9 81 bc ec b7 3e bc
       0.021031376 -0.03598353 -0.01585856 -0.01164053
000180 46 a7 89 3c aa a0 47 3c a8 c5 85 bb 2b 17 26 3d
       0.016803395 0.012184301 -0.0040824004 0.04054944
000190 63 74 a6 bc bb 21 8e bb 4f 53 da 3c 73 dc 02 ba
       -0.02031917 -0.004337517 0.026651053 -0.0004991956
0001a0 5f 5e fa bc 05 05 7f 3b ed 5d 7a 3d 7a 16 a7 bb
       -0.030562578 0.0038912904 0.06112473 -0.005099115
0001b0 2a 96 77 bd 91 cc d2 3c e2 85 32 3d 8a 3d 8a 3c
       -0.060445942 0.02573231 0.04358471 0.016875047
0001c0 0d 25 a0 bc 9a 70 75 bc ad db ba bc 0f 38 ed 3c
       -0.019548917 -0.01498046 -0.022809828 0.028957395
0001d0 8e cf de bc 39 b7 ce 3c f0 4b 68 3c d8 ec 13 3c
       -0.02719858 0.025233852 0.014178261 0.009028636
0001e0 7a 5e fd 3c 73 b4 fd 3c 83 92 ef 3c f7 66 a3 bc
       0.030928839 0.030969834 0.029244667 -0.019946558
0001f0 cf bb 10 3d 64 85 0b bd 36 3a 3a 3c 57 fc 0c bc
       0.03533536 -0.034062758 0.011366418 -0.008605084
000200 84 ba ae bc ee 4f 7a 3c ea 93 6e 3d da eb 1e 3d
       -0.021329172 0.015277846 0.05824653 0.038799144
000210 0e 32 5b 3d 63 70 1c 3c 39 81 2c bd a5 0b 80 3c
       0.053514533 0.009548279 -0.042115424 0.015630553
000220 8e 51 53 3c 99 c8 a6 bc 6b d6 0c 3b 7c d4 e7 3c
       0.012897862 -0.020359324 0.0021490108 0.028299563
000230 70 c9 b4 3c e7 df 6b bc 55 1d 98 3c 14 7e 58 3c
       0.02206871 -0.014396644 0.018568674 0.013213653
000240 85 bf b8 3c 09 1c 64 bc 74 59 1d bd 36 f6 6f bc
       0.022552261 -0.0139227 -0.038415387 -0.014646104
000250 25 b8 0d bd 04 96 74 3c e2 d7 a3 bc 74 09 08 3b
       -0.034599442 0.014928345 -0.020000402 0.0020757588
000260 38 29 69 3c c1 ba fc 3b 5e 58 52 bb d3 4e 5e bd
       0.014231019 0.0077126925 -0.0032096128 -0.05427439
000270 3d b3 d7 bc ec 13 0f bd b9 69 6d bc 60 62 9b b9
       -0.026330585 -0.03493111 -0.014490538 -0.000296372
000280 47 7f 70 3c 95 1c bb bc b8 22 3d bc bf b0 83 3b
       0.014678783 -0.022840777 -0.011543922 0.0040188725
000290 1d 42 00 3c 68 b2 6d bc 5c 50 b2 bb 25 b4 67 bd
       0.007828263 -0.014507867 -0.0054417085 -0.056568284
0002a0 c9 f0 9d bb c9 b0 2d bd 95 35 f9 3a f3 d5 07 3d
       -0.0048199636 -0.042404924 0.0019013161 0.033163022
0002b0 b4 06 cc 3c 0d 47 c1 bc b4 d1 b7 bc 6b 33 f4 3c
       0.02490554 -0.02359345 -0.022438861 0.029809674
0002c0 ab 53 9d bc 31 02 40 3c ee ad 99 3c 71 60 3e 3c
       -0.019204935 0.0117192725 0.018759694 0.011619673
0002d0 db bf c1 3b 8e 0f 1e bd 8c a9 0a bd f8 f2 4b bb
       0.0059127635 -0.038589053 -0.0338531 -0.0031120162
0002e0 c8 1b e5 3c 4b 12 f0 bb bb ac c2 bc b9 b8 5b 3d
       0.027967349 -0.0073263994 -0.023764005 0.053642962
0002f0 d9 81 1d 3d e2 d1 76 3a a9 ee 6d 3c 99 93 64 bd
       0.03845391 0.000941543 0.014522233 -0.055804823
000300 45 3b b7 bc 70 34 0e bd 41 a6 7f bc 54 bb 00 bd
       -0.02236713 -0.034717977 -0.015603603 -0.03142865
000310 83 ae 2b bd 04 af 93 ba 17 21 ed 3c c0 a3 93 ba
       -0.041914474 -0.0011267369 0.028946443 -0.0011264011
000320 f8 12 41 3b 51 c7 ec bc da c9 9f 3c ca f5 f4 3c
       0.002946077 -0.028903635 0.01950543 0.029902358
000330 9d 54 a6 3d 2c b4 ba bc 72 27 d8 ba 1e 75 2d b9
       0.081216075 -0.02279099 -0.0016491248 -0.00016542195
000340 bb a7 ea 3b e6 63 09 3c b3 99 66 bd ca a6 21 3d
       0.0071611083 0.008385634 -0.056298923 0.039465703
000350 a4 a8 3f 3d 23 85 26 bd b6 7c a4 bc 1d 37 81 3c
       0.046791688 -0.040654313 -0.020078998 0.01577335
000360 4c 1e fd bb 27 06 07 3c 87 12 25 3d 5f da b7 bc
       -0.007724559 0.008241213 0.040300872 -0.022442995
000370 44 e9 1c 3d 06 ab 5f 3c a8 6f 81 bc 52 ba 30 bc
       0.038308397 0.013651615 -0.015800312 -0.01078661
000380 7f db 1c bd fe 3e da bc ba 3e 2d bd 75 91 8b bc
       -0.038295265 -0.026641365 -0.04229615 -0.017037133
000390 eb 54 cc ba c6 38 4f 3c da fc bf 3c ff 8f 38 bc
       -0.0015589272 0.012647813 0.023435999 -0.0112648
0003a0 72 8d 61 bd d1 7c 60 3b 14 d8 dd ba 2d 38 81 3c
       -0.055066533 0.0034254084 -0.0016925358 0.015773857
0003b0 6a c6 ac 3c 75 b2 cc ba 76 f2 6a bc dd d0 1b bd
       0.021090705 -0.0015617149 -0.014340034 -0.038040984
0003c0 25 bd 0b 3c a6 2b 6f bc 0d 0e 24 bd 43 1d 3d bc
       0.008528982 -0.014597809 -0.040052462 -0.011542621
0003d0 cc 6a 1a bd 5a 83 d7 bc 58 0f d8 ba af 74 02 bd
       -0.037699506 -0.02630775 -0.0016484065 -0.03184956
0003e0 13 21 18 3d 7d f0 4e 3c d4 6f ac 3c e4 01 80 3d
       0.037140917 0.012630579 0.021049418 0.062503606
0003f0 64 ea 5f bd 2b 2f 38 bd ba 49 96 3d 36 6e 78 bc
       -0.05466689 -0.044966858 0.07338281 -0.015162995

sequential/dense/MatMul/ReadVariableOp:0 f4 [18, 512]
000000 50 b8 56 bc b4 31 a8 3c d2 a7 c8 3d b5 b1 47 bb
       -0.013105467 0.020531513 0.09797634 -0.0030470912
000010 6f 8a e4 bc 82 8e 4d bc bd 0f bf 3d 35 0b 99 3d
       -0.027898042 -0.012546184 0.09329174 0.07472841
000020 42 e1 d9 bd c7 c9 4b 3d 1a dd 60 bd 18 db 5c 3c
       -0.10638668 0.049752977 -0.05489836 0.01347997
000030 24 e5 79 bd a2 55 fd bc 1e 86 86 bd 51 95 f5 bd
       -0.06100954 -0.030924622 -0.065685496 -0.119913705
000040 94 bd 88 3d cc b8 93 bc db 93 0e 3c e9 86 b2 bc
       0.06676784 -0.018032454 0.008702244 -0.021792846
000050 4f 22 74 3d fb 57 a1 bb c5 5d 2e bd 5a ac c4 bd
       0.05960303 -0.004923818 -0.042569894 -0.09603186
000060 ca 6a 8a 3d d9 9f b5 3d 76 f0 87 3d 9b 81 89 ba
       0.0675865 0.08868379 0.06637661 -0.0010490896
000070 98 85 27 bd 45 63 e6 3d 11 dd 17 3d 10 8e b3 b8
       -0.04089889 0.11249403 0.03707606 -8.561846e-05
000080 0b ca 9a bd 3d 27 dd bb b8 4d 34 bc 88 35 87 bd
       -0.07558068 -0.0067490623 -0.011004858 -0.06602007
000090 1b b5 a5 bd 1d 11 ab bd 96 52 95 3d 9b 4a ca bd
       -0.08091184 -0.083528735 0.07291143 -0.09877511
0000a0 81 90 a3 3c aa cd 49 bb 62 4c 96 bc 16 21 96 3d
       0.019966366 -0.0030792751 -0.018346969 0.073305294
0000b0 ea 3b db bc 39 b7 2f 3c 13 93 17 bd 2e 27 02 3d
       -0.026761968 0.010724836 -0.037005495 0.031775646
0000c0 28 86 0b 3c af 54 ca bc 8a c5 99 bd 4f 05 30 3d
       0.008515872 -0.024698583 -0.07508381 0.042973813
0000d0 9f 0b ee 3d 98 89 33 bb 45 48 15 bd 44 c3 b5 bd
       0.1162331 -0.0027395245 -0.036445875 -0.088751346
0000e0 2f 8a f4 3b 57 5f ba 3c bb 27 8e 3c e9 90 a8 bd
       0.007462762 0.02275054 0.01735293 -0.082307644
0000f0 27 a9 38 bd ef 32 db 3d 93 a0 fd 3c 3e 41 36 bd
       -0.04508319 0.10703074 0.030960357 -0.044495814
000100 9c 17 8f bd 6c 11 73 3d 13 23 23 bd 4d b4 9d bd
       -0.06986925 0.059342787 -0.03982837 -0.07700405
000110 9b 66 a9 3d b0 eb a2 bd cc 40 bc 3d 8f a1 fb 3d
       0.082715236 -0.0795511 0.091920465 0.12286674
000120 3e dd e2 3b 6d 6f 3a bd 5d 80 58 bb a7 6e a4 3c
       0.006923347 -0.04551642 -0.0033035495 0.020072294
000130 dd ec 09 3e 67 85 2f 3d 04 85 b0 bb 42 73 cd bb
       0.13469262 0.04285183 -0.0053869504 -0.0062698433
000140 92 1d a8 bd fe 74 a0 3b 4a 6d c3 bc e9 95 86 bd
       -0.08208765 0.004896759 -0.023855824 -0.06571562
000150 1c 1b 9d 3d a6 10 3c 3d 2a 3e cf 3c 44 5a 35 bb
       0.07671186 0.045914315 0.025298197 -0.002767221
000160 3b c0 75 3d a3 46 b7 bc fb 90 8a 3d 6a 9e fd 3c
       0.05999778 -0.02237255 0.06765934 0.030959327
000170 1a 93 01 bc 48 cf ab 3c 40 0d bc 3a 21 28 56 ba
       -0.007908607 0.020972863 0.001434721 -0.0008169432
000180 e5 5b 5c bd 09 d9 79 3a 50 da 6e bd 4b 29 9f bd
       -0.053798575 0.0009530937 -0.058313668 -0.07771548
000190 de 61 32 bd 09 d9 37 bd bb b6 af 38 95 3c 09 bd
       -0.043550365 -0.044884715 8.3786865e-05 -0.03350504
0001a0 a1 0f 59 bc 5c 21 d4 3b bb 42 54 bd cf 68 05 be
       -0.013248355 0.0064737033 -0.05182145 -0.13028263
0001b0 81 3b 9f bc 92 b8 52 bd f4 63 34 bd 1e 04 bf bd
       -0.019437553 -0.05144555 -0.044040635 -0.09326957
0001c0 25 97 94 3d 42 4f 09 be 51 b5 89 bd 4c 7d 9b bd
       0.07255391 -0.1340914 -0.067240365 -0.07592258
0001d0 55 f0 39 bc 66 45 f8 bd 0e 1d ec bc 68 49 d3 bd
       -0.0113488035 -0.12122612 -0.028822448 -0.103167355
0001e0 d8 bd ef 38 a5 7f b7 3d 13 f8 a2 3d cb 1c 76 3d
       0.00011431769 0.08959893 0.07957473 0.060086053
0001f0 55 93 cf 3b 4e 78 a8 3d db 06 a2 3d 9a 36 b9 3d
       0.006334702 0.08226071 0.07911464 0.090436175
000200 f8 ec 64 bd 60 7c 89 bd 09 ab e2 3d 97 8a 52 3b
       -0.055890054 -0.06713176 0.110677786 0.0032126063
000210 ee d4 a8 3d 00 54 f0 3d 1c 74 82 3d 2a dc f1 bb
       0.08243738 0.11734772 0.06369802 -0.007380982
000220 d5 49 f2 3b da 79 9a bd b4 b6 cd 3d 6c 92 b2 3d
       0.0073940554 -0.075427726 0.100446135 0.08719334
000230 96 a8 06 be be 0a bb bc 63 cf d5 bd ec a5 b6 3c
       -0.13150248 -0.02283227 -0.104399465 0.022295915
000240 1f 24 68 3d ef d7 6f 3d c2 4b 2d bd 5c c9 d3 3c
       0.056675073 0.05855554 -0.042308576 0.025852852
000250 08 93 47 bc 65 45 d2 3d 55 39 b6 bd 6e d0 3d bd
       -0.012181051 0.10267142 -0.08897654 -0.046341352
000260 61 64 93 bd 39 93 67 bd b8 f4 6f 3d 0e f2 fc bd
       -0.0719688 -0.056536887 0.05858299 -0.12350856
000270 9a d0 2b 3d 93 f6 b7 bd 1d 5f 79 bd 80 77 cd 3d
       0.041946985 -0.08982577 -0.060881723 0.100325584
000280 74 fb 93 3d ce 94 17 3e c2 b6 85 3c ad 4c 86 bd
       0.07225695 0.14802858 0.016322497 -0.065575935
000290 f1 27 9a bd 7d 0a a8 3b 9a c2 d1 3d 12 d7 70 bd
       -0.075271495 0.0051282034 0.102421954 -0.058798857
0002a0 5d bb 4c 3c 78 25 59 bc 31 a8 89 bd 7a 8d ec 3d
       0.012495843 -0.013253562 -0.06721533 0.11550422
0002b0 7e f0 b0 3d 24 5d 85 b9 d4 66 7a bd a8 df 85 3c
       0.0863962 -0.00025437132 -0.06113322 0.016342
0002c0 70 11 67 bd 8b 34 8a 3d 16 d0 cc bd 26 79 fa bc
       -0.056413114 0.06748303 -0.10000627 -0.030575346
0002d0 79 5f 7c 3d ed 0c 0e bd d9 0a 63 bc 56 82 83 bd
       0.061614487 -0.034680296 -0.013857567 -0.06421344
0002e0 10 a0 8f bd f7 16 9e 3d 4a 77 8c bd 29 f3 79 3d
       -0.070129514 0.07719224 -0.0685869 0.06102291
0002f0 4c b5 93 b8 cc 01 bd 3d dd da a0 3d 33 09 bf bd
       -7.0432754e-05 0.09228858 0.07854245 -0.093279265
000300 80 26 88 3d 58 44 14 3d 51 76 2b 3d c9 a1 06 3d
       0.06647968 0.03619799 0.041860882 0.032869134
000310 00 a3 71 bd 78 4a 8a 3d 1c 60 d5 bd 8f 62 58 bd
       -0.05899334 0.06752485 -0.10418722 -0.052828368
000320 c1 68 a5 3d 6e 85 29 3c da 68 14 be e6 1a bc bd
       0.08076621 0.0103467535 -0.14493123 -0.09184818
000330 25 28 c1 bd e4 0a a7 bd 6b c2 79 bd 90 ae 33 3d
       -0.09431485 -0.08156374 -0.060976427 0.043867648
000340 fb 10 e1 bd 3a 3a 7d bd 6c b3 a6 bc 75 99 e0 bd
       -0.10989567 -0.061823107 -0.020349227 -0.109667696
000350 91 f2 cd 3d 07 e5 ea bb 53 75 64 3d 6e 05 97 3d
       0.100560315 -0.0071684155 0.05577595 0.073740825
000360 25 c4 8d bd 12 3d 81 3d a9 30 ab bd 99 03 f2 3c
       -0.06922177 0.06310476 -0.083588906 0.029542731
000370 4c b1 e4 3c 9f b8 61 3d 83 9b 4e 3d 4a 83 92 3d
       0.027916573 0.05510771 0.050441276 0.07153948
000380 37 8a a2 bd 74 9e 9f bd 5a 21 ed 3d 27 09 e6 bd
       -0.07936519 -0.077938944 0.11578627 -0.112322144
000390 e2 40 b9 3d e2 ba bf bd d5 34 f6 bc 8e cb 7a 3d
       0.090455785 -0.09361817 -0.03005449 0.06122928
0003a0 00 fe af 3d dc 79 8e 3d 03 08 06 3d 7c 4b a8 3d
       0.085933685 0.069568366 0.032722484 0.082175225
0003b0 53 d1 c3 3d 87 b8 e9 bd da 82 33 bc 38 d0 84 bd
       0.0956141 -0.11412149 -0.01095649 -0.06485027
0003c0 45 05 b9 3b f0 3a 40 3d 65 b0 a5 bd a8 b4 3e 3d
       0.00564638 0.046931207 -0.08090285 0.046559006
0003d0 5d 36 8b 3c f9 de a5 bd 8b 36 d9 3d e9 9a d6 bd
       0.016993696 -0.08099169 0.10606106 -0.104787655
0003e0 df 24 0d 3d 14 de ce 3c e8 e6 db bd a1 7a 44 bd
       0.03445899 0.02525238 -0.10737401 -0.04796851
0003f0 3d 09 9a bc 80 0c 1a bb 89 71 e0 bd 42 11 a1 3d
       -0.018803233 -0.0023505986 -0.10959155 0.0786462

sequential/dense/BiasAdd/ReadVariableOp:0 f4 [512]
000000 ec 1a 74 bd 8c b7 fd bc 3d 39 f6 bc fd a7 e3 bc
       -0.059595987 -0.030971311 -0.03005659 -0.027790064
000010 dd 89 df bc 7e 6d dc bc f9 ba 07 3d 17 eb 8b 3d
       -0.027287418 -0.026907679 0.033137295 0.06831949
000020 fb 99 41 bc d3 54 77 bb e0 59 e1 bc 16 25 4f bd
       -0.011816497 -0.0037739768 -0.027508676 -0.050572477
000030 40 47 ad 3c af 46 7e 3c 1e b6 ba 3a 26 f1 49 bd
       0.021152139 0.015519782 0.0014244949 -0.049302243
000040 ac 4c ef bc 02 ce b5 bb 0d c9 76 3a 54 1f f5 3c
       -0.029211365 -0.0055482397 0.0009414114 0.029922165
000050 ad a1 4b bc cf 67 b7 bc fa ae 61 3d 2d 82 2b bc
       -0.012428683 -0.022388367 0.05509851 -0.010468048
000060 5c 3a b2 bc 8e c8 60 bc ac 02 24 3b 2c bd 3d bd
       -0.021756344 -0.013719691 0.0025026007 -0.046322986
000070 73 b5 50 bd b0 fc b4 3c 78 a9 c9 bc 53 b9 fd 3b
       -0.050954293 0.022093147 -0.024616942 0.0077430396
000080 e6 84 00 bd e2 99 b6 bc 0c 26 ef 3c 15 ce d4 bc
       -0.03137674 -0.022290174 0.029192947 -0.025977174
000090 81 f8 b9 bc 04 2e 87 3c 4b 7e 20 bc 7e aa ce bb
       -0.022701504 0.016501434 -0.009795736 -0.0063069453
0000a0 71 0c ff bb 9e 7c c3 bb ee 27 f5 3c 2d e6 5b 3c
       -0.0077834656 -0.0059657833 0.029926267 0.013421577
0000b0 37 ec 0f 3d e1 bf 8d bc 12 2a 40 bd 6f 49 84 3d
       0.03513738 -0.017303409 -0.04691512 0.06459319
0000c0 0a 60 f3 bc 95 70 90 bd 0b 05 6e bc 28 e7 a9 3c
       -0.02970888 -0.07052723 -0.0145275695 0.020740107
0000d0 de 31 30 3a 11 d7 9a 3c ff 61 06 bc 7a fa b6 bc
       0.0006721298 0.01890138 -0.008202075 -0.022336233
0000e0 ea d2 7b bc c9 cd 16 bd 39 06 53 3d db 32 ff bc
       -0.01537011 -0.036817346 0.051519606 -0.03115218
0000f0 cc 37 57 3d 89 d8 de 3b 79 ec d0 bb 6a 7c e4 bb
       0.052543446 0.0068007153 -0.006375846 -0.006972839
000100 1b 7c 1e bd 04 2a 4d bd 2a 35 1e 3d e5 2b 6c bc
       -0.038692575 -0.050088897 0.03862492 -0.014414762
000110 d4 8c 92 bc 2f 96 e5 3c 27 53 fc 3c 61 76 63 bd
       -0.017889418 0.028025715 0.030801369 -0.055532817
000120 70 12 aa bc e8 d5 33 bc 1d c0 81 bc 3f ab 2e bc
       -0.020760745 -0.010976292 -0.015838677 -0.010660945
000130 dc 24 3d bc b9 a5 cf bc 2d fa 61 3d 01 19 b5 3a
       -0.0115444325 -0.025347577 0.055170227 0.0013816656
000140 dd a4 f7 3c 0f 57 ff 3c f2 86 58 3d 35 d3 2f 3d
       0.03022998 0.031169442 0.05286307 0.042926032
000150 91 91 d2 bc 48 8c e0 bc 9a 55 6e bc c4 74 27 bc
       -0.025704177 -0.027410641 -0.014546776 -0.01022071
000160 00 39 ef bc 65 b3 a4 bc 9e 24 27 bd bb 66 ae 3c
       -0.029201984 -0.020105073 -0.040806405 0.02128922
000170 e5 ab bf 3c 8b 20 a5 3c 79 ad a5 3c 21 44 79 bd
       0.023397395 0.02015712 0.02022432 -0.06085599
000180 72 78 b2 3b d5 17 a4 3a 98 8f 1c 3a 8c 4a af bb
       0.005446487 0.001251931 0.0005972325 -0.005349463
000190 4e 94 30 3d 0e f9 10 3b f9 6c 95 bc 2e 84 cd bc
       0.043110184 0.0022121104 -0.018240439 -0.025087442
0001a0 0d 9e a6 3b df bd 0b bd a1 44 41 bd 60 e8 fe 3b
       0.005084759 -0.034116622 -0.04718459 0.007779166
0001b0 f7 c6 96 bc 8c 24 55 ba 97 2e f6 bc 10 42 bc 3c
       -0.01840542 -0.0008130751 -0.030051513 0.02298072
0001c0 0b f8 b3 bc 5f cd 20 bd c1 76 86 bc a7 da 0e 3c
       -0.021968862 -0.039258357 -0.016414048 0.008719123
0001d0 0c 80 5d 3d f8 19 4b bd 9e ad 16 bd 02 36 02 bd
       0.054077193 -0.049585313 -0.036786668 -0.031789787
0001e0 6f d9 11 bc 7e c7 2a 3c eb 3d a9 bc 2e b7 a7 bc
       -0.008901938 0.010423539 -0.020659408 -0.02047309
0001f0 e9 cc a7 bc ab 02 3f bc 76 ec e2 37 aa 37 04 bd
       -0.020483451 -0.011658351 2.705141e-05 -0.032279648
000200 f0 8c cd 3c 59 0e aa bc 31 b3 33 3d 53 91 37 3c
       0.025091618 -0.020758795 0.043872062 0.011204082
000210 b7 aa c5 3c f4 21 f5 bc b3 c2 c6 bc c1 7e f6 3c
       0.024129255 -0.029923417 -0.024262762 0.030089738
000220 3c 98 41 3d 76 eb 79 bb a9 92 91 3b 55 86 ec bc
       0.047264323 -0.003813473 0.004442532 -0.028872648
000230 54 ac 9d 3c 58 54 02 3d 75 0e 86 3b 34 34 41 bb
       0.019247212 0.031818718 0.004091079 -0.0029480578
000240 fa 8a 09 bb 4a 46 7a 3d 65 f5 96 3c 75 dd 23 3c
       -0.0020987378 0.06110219 0.01842756 0.01000153
000250 eb a1 05 bd 30 6f 8f bc d4 a9 10 3d 53 8c 63 bc
       -0.03262512 -0.017509073 0.03531821 -0.013888436
000260 8e 75 00 3b 20 af 4f bc 5d 77 22 bd 86 cd 96 3c
       0.0019601318 -0.01267603 -0.039664615 0.018408548
000270 32 20 e3 bc c8 0b 2b bc e8 af 66 3b 35 f2 cd 3c
       -0.027725313 -0.010439821 0.0035200063 0.025139907
000280 fc 54 39 bc 4d 17 d9 bc 3e c2 b4 bd 97 c8 5a bc
       -0.011311766 -0.026500368 -0.08826111 -0.013353488
000290 00 8f 99 bc e5 1c a7 3c b4 0a 92 3c 21 ce a0 bc
       -0.018744946 0.02039952 0.01782737 -0.01962954
0002a0 e9 bc 81 3b a5 e9 0d 3d b3 fd 04 3b 59 e1 f0 3a
       0.0039592874 0.03464665 0.0020292818 0.0018377706
0002b0 c1 49 32 bd 50 c4 6c bd 50 0a 61 3d e8 15 b0 3c
       -0.04352737 -0.057804406 0.054941475 0.02149482
0002c0 7c 1e dc 3c 7a 8c 37 3c 36 01 58 bc 2c ee 3c bd
       0.026870005 0.011202926 -0.013183882 -0.046125576
0002d0 1c c9 e6 3c 44 2f 91 bb 41 31 46 3b 18 fe ec bc
       0.028172068 -0.0044306833 0.003024176 -0.028929755
0002e0 75 8b e1 3c 96 0e 20 bb ee 49 d7 b8 5b dc 96 bd
       0.027532319 -0.0024422756 -0.000102657694 -0.07366248
0002f0 9f 5d 4c bc 1b 0a e1 bb 6f f3 16 bd db 63 08 3d
       -0.012473493 -0.0068676597 -0.03685325 0.033298355
000300 2d 29 36 bd eb 92 f8 bc 50 4c 0c bd 62 b5 c2 bc
       -0.044472862 -0.030343493 -0.034252465 -0.02376813
000310 02 ef d1 bc 84 2e 08 bd 9c de 2a 3c f3 49 ea bc
       -0.025626663 -0.033247486 0.010429051 -0.028599715
000320 84 23 c5 bc 7f c5 3a bd e1 41 5e bc 02 32 a9 3c
       -0.024064787 -0.045598503 -0.013565511 0.020653728
000330 87 60 11 3c 13 d2 4c bc ba f8 4f 3d 7e dc 40 3d
       0.008873112 -0.0125012575 0.050774314 0.047085278
000340 48 c5 16 3c a4 5b cb bc 8e 3f 97 3d ca 4e 94 ba
       0.009202309 -0.024823971 0.07385169 -0.0011314985
000350 14 93 be 3b 28 20 f6 bc a3 28 db 3b 49 64 29 bd
       0.005815873 -0.03004463 0.006688194 -0.041355405
000360 e7 84 74 bb 9f 50 7b bc 33 40 6d 3c 22 cb 52 bc
       -0.0037310661 -0.015339046 0.014480638 -0.012865813
000370 fb 75 bf 3c 87 24 f2 3c 15 9a fe 3b da 48 9b 3c
       0.023371687 0.029558433 0.007769833 0.018955637
000380 69 6e 42 bd 5d 92 15 3d ad 8a 1e 3d 00 01 30 bd
       -0.047468577 0.036516536 0.03870647 -0.042969704
000390 04 c0 b9 3b 0d 05 fc bb 6e 24 f2 3c e4 4d 60 bc
       0.005668642 -0.007691032 0.029558387 -0.013690446
0003a0 be 47 35 bd 4c c3 f5 3c 42 4a cb 3a 95 32 90 bb
       -0.04425787 0.030000351 0.0015509801 -0.004400561
0003b0 05 a5 27 3c 1c 9e 86 ba 35 16 82 bd 48 bd a7 bd
       0.010232215 -0.0010270509 -0.06351892 -0.081903994
0003c0 48 18 d0 3c 09 73 92 bc fc 84 60 3d e0 d6 96 bd
       0.025402203 -0.017877119 0.054814324 -0.07365203
0003d0 b3 40 1d bd d5 11 7a bd 98 b8 e9 bc 4f 70 56 3c
       -0.03839178 -0.061052162 -0.028530404 0.0130883
0003e0 46 cf af 3b 20 a5 f9 bc a0 a4 90 bb 67 1a 92 bd
       0.005365285 -0.030474246 -0.004414156 -0.07133942
0003f0 30 0b 1b 3c 9f ac f1 bb fd c4 b9 3c b8 79 8b 3a
       0.0094631165 -0.0073753144 0.02267694 0.0010641133

sequential/batch_normalization_2/batchnorm/sub:0 f4 [128]
000000 25 a1 e3 be a6 96 bf be e9 b3 ed be 7e 9f 0e bf
       -0.4445888 -0.37419623 -0.46426323 -0.55712116
000010 81 ca ed be 74 21 eb be b4 82 f1 be 15 60 ab be
       -0.4644356 -0.4592396 -0.4717003 -0.33471742
000020 38 01 de be 2a 91 aa be 0a cb d6 be eb ad f5 be
       -0.43360305 -0.33313876 -0.41951782 -0.4798425
000030 15 38 ba be 4b 2d d4 be bb 7b df be 1c 5f e6 be
       -0.36370912 -0.41440806 -0.43649086 -0.44994438
000040 0a a9 c6 be 58 84 f4 be d2 d2 cb be 68 37 c4 be
       -0.38800842 -0.4775722 -0.3980928 -0.38323522
000050 1b 52 0b bf ac df ba be 91 05 e8 be 01 98 ee be
       -0.5442216 -0.36498773 -0.45316747 -0.46600345
000060 27 db ca be f8 b5 f2 be 87 9e f9 be ec f8 eb be
       -0.39620325 -0.47404456 -0.4875376 -0.4608835
000070 d7 9d ab be 25 91 d7 be 64 be bc be 4c 10 ba be
       -0.3351886 -0.42102924 -0.36864007 -0.3634056
000080 dc 95 ca be 05 87 d0 be c5 1a df be b1 49 f8 be
       -0.3956746 -0.40728012 -0.4357511 -0.48493722
000090 66 da d9 be 70 d2 b0 be ec 3d b1 be c7 7b c3 be
       -0.42549437 -0.3453555 -0.34617555 -0.38180372
0000a0 21 4d b6 be a8 1c 00 bf 4c e6 d7 be d6 b0 cf be
       -0.3560572 -0.50043726 -0.4216789 -0.40564603
0000b0 37 5d dc be e2 cd d8 be 28 14 d7 be dd 18 ff be
       -0.43039867 -0.42344576 -0.42007565 -0.49823657
0000c0 c3 54 00 bf fb fa 95 be 69 94 ed be 3e 45 c1 be
       -0.50129336 -0.29293045 -0.4640229 -0.3774814
0000d0 a4 06 d3 be 8f 83 c2 be 98 7f d2 be e9 62 c3 be
       -0.41216004 -0.37990996 -0.4111297 -0.381614
0000e0 4c ac b1 be 92 c5 ec be 56 22 b4 be b5 76 a8 be
       -0.34701765 -0.46244484 -0.35182446 -0.32903066
0000f0 8d ac de be 85 20 c3 be ad d3 cc be c2 d6 f2 be
       -0.4349102 -0.38110748 -0.40005246 -0.47429472
000100 96 05 df be cd 9f e0 be 16 5b b8 be a1 1c ed be
       -0.4355895 -0.43871918 -0.36006993 -0.46310905
000110 d4 59 cc be e4 3b b9 be 1a ac ab be 73 f2 dc be
       -0.39912283 -0.36178505 -0.3352974 -0.43153724
000120 9c 1d de be 80 a7 a2 be 79 d7 ac be 71 85 f1 be
       -0.43381965 -0.31768417 -0.33758143 -0.4717212
000130 6e 33 f7 be 28 b1 e5 be 5d 1f d5 be b7 c6 f6 be
       -0.48281425 -0.44861722 -0.4162549 -0.48198482
000140 54 5f 07 bf f8 cc f0 be ae 2a de be 63 3f c2 be
       -0.52879834 -0.4703138 -0.43391937 -0.37938985
000150 ca 2b ef be 56 39 d4 be 6f bd d7 be f0 1b f7 be
       -0.46713096 -0.41449994 -0.42136714 -0.48263502
000160 39 82 ac be 72 b7 a4 be 1a 78 d6 be 01 ab cc be
       -0.33693102 -0.32171208 -0.41888505 -0.39974216
000170 be bb f4 be 6d 48 b0 be 7d ba c7 be 7b e9 d5 be
       -0.47799486 -0.34430256 -0.39009467 -0.41779694
000180 48 7e c0 be 75 83 b0 be 7e 6d e1 be 94 ab f1 be
       -0.37596345 -0.34475294 -0.44028848 -0.47201216
000190 16 ee e5 be 9a 51 dc be db fe d4 be 61 c1 a9 be
       -0.44908208 -0.43031007 -0.4160069 -0.3315535
0001a0 f2 b6 fc be 2b da ef be be 1a 05 bf 74 65 e2 be
       -0.49358326 -0.46846136 -0.5199393 -0.44218028
0001b0 d3 3b da be 1d f5 d9 be a4 a4 fd be be f4 ee be
       -0.42623767 -0.4256982 -0.49539673 -0.46671098
0001c0 2c 7d fa be 35 97 c3 be b2 36 c3 be db 19 b5 be
       -0.48923624 -0.382013 -0.38127667 -0.3537129
0001d0 34 9e d1 be 36 37 01 bf 9b de bd be c9 fa ca be
       -0.40941012 -0.5047487 -0.37083897 -0.3964446
0001e0 d9 eb d5 be 52 e3 eb be 8b 05 e1 be 6f cb e0 be
       -0.417815 -0.4607187 -0.4394954 -0.43905208
0001f0 0c c1 dd be 67 42 ea be 64 a6 ef be f5 d8 f1 be
       -0.43311346 -0.45753786 -0.46806633 -0.47235838
